checkpoint.pth (torch, 23033 bytes, 6 tensors)

fc1.weight f4 [64, 8]
00000000: ed2e 803d d815 583f a08a 8abe 9c28 2640
00000010: 733a 063f c3f8 ed3d 4770 74be 83d2 fe3d
00000020: 76e3 b23f 317c 153d 63fe 633f 37bf 84be
00000030: 383e 923e 86cd dcbd 3d84 59bc 45a1 823d
00000040: e71a 7e3e 3119 97be e8d1 203e a250 20bf
00000050: 46cd 1fbf aa55 16bf 37f5 61be 65fa 483e
00000060: 3e5d 75bf 9bb8 cfbd 9d87 28bf 7aad acbf
00000070: 84ce f13e 803e 783e 0e2b 913e 5734 203e
00000080: 2a91 6f3e 2424 5e3e 6994 3c3f c1e6 e3be
00000090: 1b10 b93e b206 313f 8b45 3bbe 3aa2 a0bf
000000a0: 30fc e03e 0826 8abf 1ee1 933e a87a c7bf
000000b0: 080a 3abd 267e d7bd 5902 dd3e 73f5 24bd
000000c0: 92a2 2f3e 5d00 6bbf 69ec e3be 1c0c a9bd
000000d0: 1c37 a03e fd14 ff3f db9a 403e aa16 98be
000000e0: fc29 c4be ea3e 6cbe 0fee 883f 7b32 0cbf
000000f0: fdd5 70bf 02a9 80bd 8ac9 a3bd 9b05 ddbd
00000100: 33d5 2d3b 8fae 86be e5e1 4b3e b9f6 cabe
00000110: adf4 3abf cadc 5bbf a61e 013f 5699 253f
00000120: 5415 813e 98bf 0dbf b71c 3fbf 87e5 b23d
00000130: ee8f a13f ab2c 3d3f 0718 f03e 1690 153c
00000140: 104b a7bf 265e aebd ad83 20bf 47ae 0cbe
00000150: b888 2e3e 9135 ebbe 39cc e3bd 2bb0 9e3d
00000160: 9e71 8fbe 758f 6b3e 3d60 523f 8dcd 5fbf
00000170: 5755 603f dcdb 3a3e 1119 40be 0c60 93bd
00000180: 4027 c53e 6ec7 54bf ff61 d4be 9aa9 d6bf
00000190: 21fd a3be ec33 683e 7748 353e 6cba 283e
000001a0: 26ce 3ebf c82d eebe 9dcf 0ebf 6ce6 90be
000001b0: e8e5 f4be eeb4 6dbe 8f9e 1b3f d743 e03e
000001c0: 4732 cd3e 2fb6 e9bf 4f20 bfbd aa5e 15bf
000001d0: 7b4f c5bf a996 bebe a35b 5dbe d4d3 b1bf
000001e0: f8b1 08bd d3b1 4f3f e3d5 6a3f 4b0d 9cbf
000001f0: 0d38 6f3e 55b2 e6be af25 b2be e2e8 2ebf
00000200: 344d 843f 382a 9a3e 6028 483f af04 3abd
00000210: 10b2 83bf fd5d a0be 8036 b6bd 66fe 99bf
00000220: ba76 9cbf 1067 00bd d2fa 5fbf 8bdf 89be
00000230: 3f77 aebd 4ab6 55be d2e2 0cbe 82b1 8dbd
00000240: e2ff 2ebe 0498 fc3e 2151 f0be 8a02 323f
00000250: dadf 9e3f 6639 bc3e ad13 6c3e 2beb 6fbf
00000260: 7ae1 00bc 59b0 8abf 4681 79be cc77 68bf
00000270: 52b3 583f 1516 683f 7d3d a33e fa2e 5dbe
00000280: 6b45 f03e 87b3 74bf 88d6 723e 6088 92bf
00000290: c2ba 34bf 8107 5abe d3db 873e 6518 bb3d
000002a0: 66e2 183e a1b0 81bd 5332 0b3d 658a 72be
000002b0: 6921 2e40 9212 bfbc c49a 32be cf47 37bd
000002c0: e57b b7bd f868 583f 34c1 503e 9d6f 0cc0
000002d0: f09b 4d3f 9511 f03e 28ed e0be 915b a4bc
000002e0: 94ea 9f3e 353a 07bf 7523 30bd b5c4 22bf
000002f0: 45aa 5ebf 9ecf 04bf 0407 903e bd15 debd
00000300: 6b01 6cbf 3216 a43d a52e 403d b4c0 d13f
00000310: 1e73 44bf 7ede d1be f1cb bcbd c906 1dbe
00000320: bce5 59be b4e6 0dbe eb61 37be 8d18 42bf
00000330: 02f9 c2bc 1ac9 8cbd 27b0 11bf 788e 68bf
00000340: cb6d a3bd b6bf 08bf 74fd 3f3d ee97 273f
00000350: cd6d 08be 07e8 7abf 5f06 7d3e 8813 813f
00000360: c681 14be bfb8 14be fd95 0d3f c49b 3abf
00000370: 7248 1ec0 d86f 5dbe 7ccd 5ebd 7851 5dbc
00000380: 3d3f 7b3d f7da 7a3e d63e 133e f7cb a13e
00000390: 979e b6be 7b9c 6dbf 915e 59bf c8af 073f
000003a0: 325e b2be 2ad0 c63e 72a7 ba3f 4c34 943f
000003b0: dd7a 353f 214b c4be 543d a0be 447f ba3e
000003c0: 74a8 0a3f a9ca 50be 438a b83e dada 2dbf
000003d0: 11d3 06bf 7c75 a6be 54ab 7d3d 99c9 0b3d
000003e0: 985a ac3e dad6 763f 0828 853d 0d72 c33e
000003f0: a262 533e 78b4 39bf 9397 f3be 886b 7dbf
0.062589504 0.8440833 -0.27058887 2.5962286 0.52432936 0.11619713 -0.23870955 0.12442496
1.3975666 0.03649539 0.8906004 -0.25927135 0.28563094 -0.10781388 -0.013276157 0.06378416
0.2481495 -0.29511407 0.15705073 -0.62623036 -0.624226 -0.58724463 -0.22066198 0.19626768
-0.958454 -0.101426326 -0.6583193 -1.3490441 0.4722787 0.24242592 0.2835316 0.15644966
0.2339522 0.21693474 0.73663956 -0.4451199 0.361451 0.6915084 -0.18288247 -1.2549508
0.43942404 -1.0792856 0.28882688 -1.5584307 -0.045419723 -0.10522108 0.43165854 -0.04027314
0.1715186 -0.9179743 -0.44516304 -0.08254263 0.31292045 1.992828 0.18809073 -0.2970479
-0.38313282 -0.23070875 1.069765 -0.5476453 -0.9407652 -0.06282236 -0.07997425 -0.10792085
0.0026524782 -0.26305053 0.1991039 -0.3964136 -0.73029596 -0.8588377 0.5043739 0.646871
0.25211585 -0.55370474 -0.7465319 0.08735185 1.2622049 0.7389628 0.4689333 0.009128591
-1.3069782 -0.08514051 -0.6270092 -0.13738357 0.17044342 -0.45939305 -0.11122937 0.07748445
-0.2801637 0.23003943 0.821781 -0.8742302 0.8763022 0.18247932 -0.18759562 -0.07196054
0.38506508 -0.83116806 -0.41481015 -1.6770508 -0.3202906 0.22676057 0.17703424 0.16477364
-0.7453331 -0.46519303 -0.5578554 -0.28300798 -0.47831655 -0.2321355 0.60788816 0.43801758
0.4007742 -1.8258723 -0.09332334 -0.5834757 -1.541488 -0.3722432 -0.21616988 -1.389277
-0.03337285 0.81130713 0.91732615 -1.2191557 0.23361225 -0.45057932 -0.34794375 -0.683241
1.033606 0.30110335 0.7818661 -0.045414623 -1.0288715 -0.31321707 -0.08897114 -1.2030761
-1.2223732 -0.031348288 -0.87492096 -0.26928362 -0.08518838 -0.20870319 -0.137584 -0.069186226
-0.17089799 0.4933473 -0.46936896 0.69535124 1.2412064 0.36762542 0.2305438 -0.9371821
-0.007866258 -1.0835067 -0.2436572 -0.90807796 0.8464862 0.90658695 0.3188285 -0.21599951
0.46927962 -0.95586437 0.2371465 -1.1447868 -0.7059747 -0.21291925 0.265349 0.09135512
0.14930114 -0.063325174 0.03398354 -0.23685606 2.7207892 -0.023324285 -0.17441851 -0.044746216
-0.08959178 0.8453517 0.20386201 -2.1943123 0.80316067 0.46888414 -0.43930936 -0.020063194
0.31233656 -0.5282319 -0.043002564 -0.635814 -0.8697856 -0.518793 0.28130352 -0.1084399
-0.92189664 0.08012046 0.046919484 1.6386933 -0.76738155 -0.4099006 -0.09218586 -0.1533462
-0.21279043 -0.13857538 -0.17908446 -0.7581871 -0.023800377 -0.068742946 -0.5690941 -0.9084239
-0.07979926 -0.5341753 0.04687257 0.654662 -0.13323136 -0.98010296 0.24709462 1.0084085
-0.1450263 -0.145236 0.5530699 -0.7289393 -2.4731717 -0.21624696 -0.054395184 -0.013508193
0.061339606 0.24497591 0.14379439 0.31600925 -0.3566787 -0.92816895 -0.8490992 0.53002596
-0.3483749 0.38830692 1.458235 1.157846 0.708906 -0.3833857 -0.3129679 0.3642522
0.5416329 -0.20389809 0.36042985 -0.67912066 -0.5266581 -0.32511508 0.06193097 0.034127805
0.33662868 0.9642159 0.06501776 0.3817295 0.20643094 -0.72541 -0.4757658 -0.98992205

fc1.bias f4 [64]
00000000: 9d58 be3e b608 0c3d 211a 72be edea 77be
00000010: 0056 69be 1743 b23e e029 413f af4f 71be
00000020: 3cc2 66be 8600 dc3e 59fc 013d 40d3 113e
00000030: cc44 853f 6b12 bdbe c7ce bd3e 3659 27be
00000040: d532 74bd 8b0d 02be 279e 7b3e 326c e83d
00000050: c33f 82be cc12 4a3d 57d4 633e 799e d9bd
00000060: 780f b6be 26f4 b23e 91a5 1fbe 80b5 2c3d
00000070: 5277 d73d 45e6 a2be d3a3 2abe 76b2 13bf
00000080: 5009 123f 1020 a53e 0635 4f3f 01db 663f
00000090: 5e6a b43e d93f 4dbe 816f b4be a89e 8a3e
000000a0: 403e 60be 7665 833f b6ab cf3e 8b05 ab3e
000000b0: 9f69 3a3f 5db3 4fbe d099 c03e fb30 943f
000000c0: f04c 7f3e 28be e73e 5286 b13e e73f 89be
000000d0: fe2e 903c 91ec 47be 88ca 96bd 9791 d23e
000000e0: 2bb9 dd3b 4999 e4be 1361 32bf e858 d53e
000000f0: db67 9ebe feb5 583e 878c 853f dc00 71bd
0.37176982 0.034187995 -0.2364278 -0.24210711 -0.22786713 0.3481681 0.7545452 -0.23565553
-0.22535032 0.4296915 0.031734798 0.14240742 1.041162 -0.36928114 0.3707182 -0.16342625
-0.05961879 -0.12700479 0.24572049 0.113487616 -0.2543927 0.049334332 0.2224897 -0.106259294
-0.35558677 0.34951895 -0.15590502 0.04216528 0.105208054 -0.31816307 -0.16664056 -0.57694185
0.5704546 0.32251024 0.8094028 0.90177923 0.35237402 -0.20043887 -0.3524132 0.2707417
-0.21898746 1.0265338 0.40560693 0.33402666 0.72817415 -0.20283265 0.3761735 1.1577448
0.24931693 0.45262265 0.3467279 -0.26806566 0.017600533 -0.19523837 -0.073628485 0.411267
0.0067664585 -0.44648197 -0.69679374 0.41669393 -0.3093861 0.21163175 1.043351 -0.05883871

fc2.weight f4 [64, 64]
00000000: 6ade 97bf ba66 323f 5144 473d 2263 0dbe
00000010: c88f a13e ff09 753e 5ca3 313e 4f49 5d3e
00000020: 1820 1c3e 3a98 d23e c827 1fbf 8267 833e
00000030: 6ad1 a13d f4c8 b03d f447 8ebe 65ee d83e
00000040: d909 88be 5269 e8be 28fe 8b3d bd0a 763e
00000050: a18e f53d 6015 c93e bb9d ae3d e3e5 803e
00000060: 2653 e8bf e747 9c3d 193e 72be 5b53 9bbe
00000070: 846a 84bf 3c49 f9be 9292 6fbc efd0 08bf
00000080: 70ae 073e 73ec dd3d 4165 aabe 41e0 b3be
00000090: b086 7cbe 0258 b2be a1cb 4cbe d061 543e
000000a0: 6b62 923f 9c27 f7be d196 cabf b983 f63e
000000b0: e33b 523e a74b 183d b699 7ac0 bc36 cd3d
000000c0: c494 d4bd 7e48 0abe ecad c3bf 0b2e 943e
000000d0: 5a25 6abd d7ad 63bd 56c5 f3bf a60f 313e
000000e0: 7627 e0be 969b 713e ebbc 1b3f fb33 8dbe
000000f0: 9ff3 c4be 77de 4dbe e878 16be dc1a 023f
00000100: 6c03 833d 20b5 903e 3f61 4c3f a666 f83e
00000110: 5921 a6be 7ee8 b93e 8d7a 1f3e 20d6 033f
00000120: c103 473d a75c fabd a2a9 cdbd abc2 f9bd
00000130: fddb 8d3e 1104 183c 6bfd 3c3d b58d aabe
00000140: 7568 8bbe d320 383e 23d5 9ebf 4a1f b03e
00000150: e9c2 47be 1064 22bf 6afa 80be 595c ad3d
00000160: fbbb 113f 19b4 a7bd c902 633e 6232 6dbe
00000170: 7b94 d13e 8e69 943e 3fa7 4d3e e2d5 263f
00000180: c8b5 473d a1b1 153f 4a62 01be 3977 d7be
00000190: 1733 283f 904d 393f 56e6 0bbf 864b 8ebf
000001a0: cccf 0f3f 39d2 063f f05a 213f ad97 fbbc
000001b0: ef2e 05bf 6c2a 643e 7015 bf3e 2001 9e3d
000001c0: b93e 693e 9d14 8e3e f8f8 e73f aef1 1fbf
000001d0: 8a0a 86be 9ecf b73e 8927 9e3f 1353 2c3e
000001e0: 1a3d 253d 08f5 56be 6686 4dbe 415c 753e
000001f0: d7b3 f43e b5a1 b63e 445d 793e d392 033f
00000200: 0f8b c8bf 8627 88bf f8b4 58bf c351 60bf
00000210: 6200 e7bf 68ad b2bd af92 aebf 75ef c1be
00000220: 8d8d 56bd 66fa 36bf a89a 57bf 166b edbd
00000230: 4be5 3f3f 2bf7 73be 42f0 6ebd 6b9c 533f
00000240: 465f c4be e29b f6be 7fd6 cebf 954a b6be
00000250: fb16 c4bf bd82 d63f d98e 163f 275c 95be
00000260: eab5 583e 44f4 d1be 513d 623d 246c 3f3f
00000270: aff3 4fbf 351a 943e 42b7 e8be 8ad4 a23f
00000280: 33f9 a63c 8ded a93d a7af c73e c08b 6dbe
00000290: 930d 773f bb76 ae3f 3050 813f 0dda 93bf
000002a0: f9a1 ebbe d264 723e 936b 693f 93ef 09bf
000002b0: ad55 42be 9954 f93e 74bc aabf fbc6 9c3e
000002c0: 8d59 d63e b6a6 f63e b400 213f a247 2bc0
000002d0: 12e9 6d3f 2aaf c7bf c509 6ebf 3995 9cbf
000002e0: 2c0e c43e 6feb 7d3f ceba 73bf 611f d4be
000002f0: 4228 ad3d b9d7 073f bd2b b33e 515c b73f
00000300: 95e5 3f3f 5cde 6b3f c96e 253f 49ff 533f
00000310: 4d22 8c3d 8e75 b0be 8068 0c3e f013 ea3e
00000320: deea 9e3e f28d 573e 50e2 cc3e 981f 003f
00000330: 9a47 0e3d b81d a73e 7fdb 3cbd 9f10 8cbe
00000340: 61be 6d3f d078 a03e 92d5 483f f65e 863e
00000350: 89c7 143f 8ad2 19be 3b47 d03e a4ef e03e
00000360: fae4 6c3f 7067 1bbe 3127 cd3e 0844 7bbc
00000370: d8c9 723e fd8c 36bf 667b ac3e a1c3 1dbf
00000380: 073a d1be cb10 21bf 5732 ccbe 410f 6bbe
00000390: 2779 17be fef0 8cbf fb0a 42be 8190 fd3e
000003a0: b6bf 8ebe 5e82 48bf ee88 a6be 118d 0c3e
000003b0: c287 bc3d f36c fa3e 8c64 853f bd80 863e
000003c0: 26af 1f3f 71df 473f deeb bdbe f75e 1c3f
000003d0: 2113 423e bafd 6f3f 85ea bf3e 87d7 213f
000003e0: 88f8 073f 41e5 9fbe 2d57 013f b0d9 bc3d
000003f0: cfec 993e d9d3 9bbf 3207 443e ebc8 11bf
-1.186475 0.69688 0.048649136 -0.13807347 0.3155501 0.23929594 0.17347473 0.21609996
0.15246618 0.41131765 -0.62170076 0.25664908 0.07901271 0.08632079 -0.2778927 0.4236938
-0.26570013 -0.45392853 0.06835586 0.24027534 0.11990095 0.3927412 0.085261784 0.2517539
-1.8150375 0.07630902 -0.23656501 -0.30337033 -1.0345006 -0.48688686 -0.014622347 -0.5344381
0.13250136 0.10836115 -0.33280376 -0.3513203 -0.24660754 -0.3483277 -0.19999553 0.20740438
1.1436285 -0.48272407 -1.5827276 0.4814737 0.20530657 0.037181523 -3.9156318 0.100202054
-0.10379937 -0.13504216 -1.5287452 0.28941378 -0.057164527 -0.05558571 -1.9044597 0.17291126
-0.43780106 0.23594508 0.6083514 -0.2757872 -0.38467118 -0.20104395 -0.1469456 0.50822234
0.06397137 0.28263187 0.79835886 0.48515815 -0.32447317 0.3631019 0.15574093 0.51498604
0.048587564 -0.12224703 -0.100421205 -0.12195333 0.277069 0.009278313 0.046140116 -0.3331124
-0.27228132 0.17981271 -1.2408794 0.34398872 -0.19507946 -0.63433933 -0.2519105 0.084648795
0.5692746 -0.08188648 0.22169031 -0.23163751 0.40933594 0.28986782 0.2008333 0.6517011
0.048757344 0.58474165 -0.1263515 -0.42083147 0.65702957 0.72383976 -0.5464834 -1.1116798
0.5617645 0.52664524 0.63029385 -0.030711973 -0.5202474 0.22281808 0.37321043 0.07715058
0.22777833 0.27750102 1.8122854 -0.6247815 -0.26179916 0.35900587 1.2355815 0.16828565
0.040341474 -0.2099191 -0.200708 0.23960973 0.47793457 0.35670248 0.24351984 0.5139591
-1.5667437 -1.0637062 -0.84651136 -0.8762476 -1.8046992 -0.08724481 -1.3638514 -0.37878004
-0.052381087 -0.7147583 -0.8422036 -0.11592691 0.7495925 -0.23824756 -0.058334596 0.8266055
-0.38353938 -0.48165804 -1.6159209 -0.35603777 -1.5319513 1.6758648 0.5881172 -0.2917187
0.21163145 -0.41006672 0.055234257 0.74774384 -0.81231207 0.28926244 -0.45452315 1.2721112
0.0203825 0.08297262 0.390012 -0.23197842 0.9650509 1.3629984 1.0102596 -1.1550919
-0.46022013 0.23671272 0.9117977 -0.53881186 -0.18977995 0.48697355 -1.3338761 0.3062056
0.41865197 0.48174065 0.628917 -2.6762471 0.9293376 -1.5600331 -0.9298366 -1.2233039
0.38292062 0.9918737 -0.95206916 -0.4143019 0.08454944 0.5306354 0.34994307 1.4325048
0.7495969 0.9213617 0.6462217 0.8281141 0.0684248 -0.34464687 0.13711739 0.45718336
0.31038564 0.21050242 0.40016413 0.5004821 0.034736253 0.3263986 -0.046107765 -0.2735643
0.9286862 0.31342173 0.7845088 0.26244324 0.58116966 -0.1502172 0.40679345 0.4393283
0.9253689 -0.15176177 0.40068963 -0.015336044 0.2370981 -0.7130888 0.33687896 -0.6162663
-0.40864584 -0.6291625 -0.39882156 -0.22955038 -0.1479231 -1.1011045 -0.18949501 0.4952431
-0.2788064 -0.78323925 -0.32526344 0.13725688 0.09205581 0.48911247 1.042131 0.26270095
0.6237663 0.7807532 -0.37094015 0.61082405 0.1895261 0.9374653 0.37483612 0.63219494
0.53113604 -0.31229594 0.50523645 0.09221208 0.30063483 -1.2174026 0.1914337 -0.569472

fc2.bias f4 [64]
00000000: 0998 6e3d 1db9 dc3e c87d cb3d eca1 853d
00000010: 64e1 223e 6985 013f 1318 97bd f151 9f3d
00000020: e1a8 3e3c cdbd 55bd 3c59 98bd 8f30 04bf
00000030: 280c eebc 4211 903e 1663 adbd 74c8 973e
00000040: 0a39 9c3b 2c2c 8dbd a280 223e e2f5 ca3e
00000050: 955c 09be f5c7 fa3c 5daa 8f3e 023a a5bd
00000060: 1b5f 343c 918f ccbd 3918 023d 0063 8d3c
00000070: dec3 7a3d 66d9 69be d3e0 ea3d b775 f83c
00000080: 1e41 ce3e 898b bf3d c596 d53c 325c 053e
00000090: ba91 8b3f dcf0 cabe deb9 a1bd d767 013f
000000a0: 2ad8 323f d67c d73d 99b4 0fbe eccc d33c
000000b0: 3f62 9f3f 887d c2be e9aa 1c3d 9044 b83f
000000c0: df23 0e3e 3de2 d33d 1354 a7be 8e73 bfbd
000000d0: a91b a83e 8291 8cbe 662a 0cbc b34a afbd
000000e0: 8f31 563d 5ce2 873c 6ef4 623e a005 6c3f
000000f0: 00cb 36bb 0684 ba3d fe34 14be c779 e93e
0.05825046 0.4310998 0.099361 0.06525025 0.15906292 0.5059419 -0.07377639 0.07779301
0.011636944 -0.05218296 -0.07438895 -0.51636595 -0.02905853 0.28138167 -0.08466165 0.2964512
0.004767542 -0.06893191 0.15869382 0.3964072 -0.13414223 0.030612925 0.28059664 -0.08067705
0.011009003 -0.099883206 0.03176138 0.017259121 0.06122195 -0.22836837 0.11468663 0.030329568
0.40284055 0.09352786 0.02607287 0.13023451 1.0903847 -0.39636886 -0.078967795 0.5054907
0.6986109 0.105218574 -0.14033736 0.02585455 1.2451857 -0.37986398 0.03824893 1.4395924
0.13880871 0.10345886 -0.3268133 -0.09348212 0.32833603 -0.27454764 -0.00855503 -0.085591696
0.052293357 0.016587429 0.22163555 0.92196083 -0.0027891994 0.09107213 -0.1447334 0.4560072

fc3.weight f4 [4, 64]
00000000: 1ff3 d1be 8480 c0be c8f8 2240 8882 debe
00000010: faeb 86bf 9bf3 0b40 c6a4 1c3c 9859 f3be
00000020: e254 d4be 7955 54bf 9192 2abf bfdc f0be
00000030: c705 b0be a89b 1c40 fb42 1fbf 6964 35bf
00000040: f240 14bf 91d7 b6be e06d 6dbe 6f84 223f
00000050: c445 dcbe eeda 2cbf e354 5cbf 8016 52bd
00000060: de1d cbbe 3b9d 1cbf 4a60 26bf 9040 f0be
00000070: 9ae9 083d 3a57 3bbf 22ac c2be 54a3 babe
00000080: 93ee 0d3e ea72 0540 dbbc 0ebf e0de 02bf
00000090: f2ca babf 7048 54bf c58b 09bf 72db fd3f
000000a0: 2180 a23f e350 9dbe a6d5 b4bd 59e4 3fbf
000000b0: 2ec1 0140 624a 84bf 67a5 65bf ce27 0140
000000c0: 9921 e0be e214 a4be 3803 58bf 950c 4f3c
000000d0: 9c68 62bf 70fd 34bf 73fa babe aa6b 153f
000000e0: 0bda bcbe 6f77 15bf 4192 7c3f cf9c 923f
000000f0: 1489 2dbd e2d8 f9be 2e86 c7bd c32b 1240
00000100: 27c0 34bf 34be 80be 9598 3840 9f49 9dbe
00000110: a75c 93bf ae75 f53f feab 303d 830b 83be
00000120: 8f8e ecbe 2181 17bf 8b9a f7be 9f8c d3be
00000130: 9864 c3be 6ec4 0b40 2d67 cbbe 36ef 3ebf
00000140: ccf7 c9bf 52fe fbbe 8ea0 4ebf e538 673f
00000150: 9714 12bf 5c0b 79bf fbe4 b8bf 9041 553d
00000160: 0893 95be 05b1 fcbe db74 2cbf b41f f7be
00000170: 3bc3 23bc 16fb d0be 1f40 c1be b276 8abe
00000180: 2dd8 44be 2373 0440 a717 82be d1cf 05bf
00000190: ff00 82bf 96d4 b9be 8fdb 60bf 1845 cf3f
000001a0: 4004 b03f 0977 e3be dd1a c03d ec8a 48bf
000001b0: 69d7 1040 2b21 4ebf bdca 43bf 26eb ed3f
000001c0: a2c5 16bf cded 02bf 3f80 53bf 2559 9d3d
000001d0: 2f39 2cbf dc0e 28bf d985 a6be 11ee 973f
000001e0: 3c2b f9be ad4f 7abf 6c0b 283f 851f 8c3f
000001f0: f424 16bd b779 82be ec5f 0c3d c8b8 1340
00000200: db1d 613f 186a f93e 571b 1f40 909b ffbe
00000210: c76f bfbf bfad 0140 3a4a 133d 0e85 74be
00000220: a17a bdbe aa9a 25bf fe2d e8be 41b2 8dbf
00000230: 9550 39be 4db2 0740 af44 41bf 187b 1dbf
00000240: 721c 6fbf 223e 0dbf 4d5d fb3e c6cc fbbf
00000250: 933e 1cbf ce84 45bf c68a 96bf 958e 023d
00000260: 3f4d 77be a617 49bf f283 edbe a988 88be
00000270: 08d3 e1bc 3c3b 10bf 513f 33be 966d 09bf
00000280: e99a 833f b884 0d40 bf93 00bf b527 08bf
00000290: e6fc e2bf f2d7 a0bf bcec 17bf e90d e93f
000002a0: 70a1 a83f 8d7d d4be eb98 b33d ac23 38bf
000002b0: f672 ba3f dd9a abbf 2831 65bf 94d0 0740
000002c0: d57e 99be 8747 7bbe 2603 3abf 5820 c1bd
000002d0: 7cf0 8ebf 62cd 8ebf 6f94 76be aed9 563f
000002e0: 8f66 c5be 9bb9 8cbf df7b 53bb d4e4 c13f
000002f0: 3843 bc3c eb4e f1be f6d7 6d3d 16d0 0940
00000300: bf05 f9be a4d3 23bf 9e9a 0640 1820 0cbf
00000310: 5437 44bf 8547 1440 caf5 cbbd 4fd4 f2be
00000320: b24e b5be 87a3 febe 57b6 e3be 788c 82bf
00000330: 63c1 bcbe 22f0 2040 8ce5 07bf 6616 0cbf
00000340: f800 e43e 564f f4be be05 343e effa 963f
00000350: c3bd ddbe d053 0abf 8b27 90bd 6f19 3f3d
00000360: 09fe e6be 9c97 b7be 5159 f1be dd74 b8be
00000370: b683 e83d 147a 16bf 00ad bdbe 6080 00bf
00000380: 1e01 8b3c 0ae6 0040 0aff 13bf 149f bdbe
00000390: d4c0 fbbf 5017 3dbf 20eb 42bf 5976 2240
000003a0: 6f9e 793f 9792 92be c9e7 00be 7fb0 dabe
000003b0: 8298 cb3f c54a 38bf 0af2 6abf 8fc0 3340
000003c0: 93fc d9be 5692 b0be 9734 58bf 2f15 ac3d
000003d0: 981e a7bf 1a98 21bf 1e25 11bf cecf 23bf
000003e0: 1dac efbe 1279 88be 0a4f cd3f dda1 813f
000003f0: 94e5 c53d 7fbe 0fbf 10ea edbd 715b 1040
-0.410058 -0.3759805 2.5464344 -0.43458962 -1.0540764 2.1867435 0.009560769 -0.47529292
-0.4147101 -0.8294292 -0.6662989 -0.47043416 -0.34379408 2.4470005 -0.6221158 -0.7085634
-0.579116 -0.3571134 -0.23186445 0.6348333 -0.43021977 -0.6752156 -0.86067027 -0.05129099
-0.39671224 -0.61177415 -0.64990675 -0.46924257 0.033425905 -0.7317997 -0.38021952 -0.36452734
0.1386054 2.0851388 -0.5575692 -0.5112133 -1.4593184 -0.8292303 -0.53728896 1.9832594
1.2695352 -0.30725774 -0.08829813 -0.74957806 2.0274158 -1.03352 -0.8970551 2.0180545
-0.43775633 -0.32047182 -0.8437991 0.012637277 -0.8844087 -0.70699215 -0.36519203 0.5836741
-0.36885104 -0.58385366 0.98660666 1.1454104 -0.042367056 -0.4879828 -0.097423896 2.283921
-0.706057 -0.25145113 2.8843129 -0.3072023 -1.151265 1.9176538 0.043132775 -0.2559472
-0.46202514 -0.5918141 -0.48360094 -0.41318223 -0.38162684 2.183864 -0.39727154 -0.74583757
-1.5778747 -0.49217469 -0.80713737 0.9032119 -0.5706267 -0.9728296 -1.4444879 0.05206448
-0.29213738 -0.49353805 -0.6736581 -0.48266375 -0.009995277 -0.40816563 -0.37744233 -0.27043682
-0.1922309 2.0695274 -0.2540867 -0.5227023 -1.0156554 -0.36295003 -0.8783502 1.6192961
1.3751297 -0.44426754 0.09380124 -0.7833698 2.2631476 -0.8051936 -0.7648123 1.8587387
-0.58895314 -0.51144105 -0.82617563 0.076830186 -0.67274755 -0.65647674 -0.32523993 1.1869527
-0.48665798 -0.97777826 0.6564243 1.0947119 -0.036656335 -0.25483486 0.034271166 2.3081532
0.8793618 0.48713756 2.4860437 -0.49923372 -1.4955987 2.0262296 0.03595946 -0.23878881
-0.3700762 -0.64689124 -0.4534759 -1.1070024 -0.18097146 2.1202576 -0.7549543 -0.6151595
-0.9340278 -0.5517293 0.4909462 -1.9671867 -0.6103298 -0.7715577 -1.17611 0.031874258
-0.24150561 -0.7855171 -0.4638973 -0.26666763 -0.027566448 -0.56340384 -0.17504622 -0.5368284
1.028165 2.2112255 -0.5022544 -0.5318559 -1.7733428 -1.2565901 -0.59345603 1.820737
1.3174267 -0.41502038 0.08769401 -0.7192943 1.4566333 -1.3406636 -0.8952813 2.1221056
-0.29979578 -0.24539004 -0.72661054 -0.09429997 -1.116714 -1.1156428 -0.2408006 0.839259
-0.38554808 -1.0994142 -0.0032269878 1.5147958 0.022981271 -0.47130522 0.058067285 2.1533256
-0.48637196 -0.6399481 2.103187 -0.5473647 -0.76646924 2.3168652 -0.0995899 -0.47427604
-0.35411602 -0.49734136 -0.44475052 -1.0199118 -0.36866292 2.5146565 -0.53084636 -0.5472168
0.4453199 -0.4771678 0.17580315 1.1795329 -0.4330884 -0.5403414 -0.07038792 0.046655115
-0.45115688 -0.35857856 -0.47138456 -0.3602666 0.11353247 -0.58780026 -0.3704605 -0.50195885
0.016968306 2.0140405 -0.57811034 -0.3703543 -1.9668221 -0.738637 -0.7614002 2.5384734
0.97507375 -0.28627464 -0.12588419 -0.4271278 1.5905917 -0.7198909 -0.9177557 2.8086278
-0.4257551 -0.34486645 -0.84455246 0.08402478 -1.3056211 -0.63122714 -0.5669726 -0.6398896
-0.46811 -0.2665487 1.6039746 1.0127522 0.09662929 -0.5615005 -0.116169095 2.2555811

fc3.bias f4 [4]
00000000: a788 883e cb20 26be 3540 443e 07cc 483e
0.26666757 -0.16223447 0.19165118 0.1960908
