checkpoint.pth (torch, 23033 bytes, 6 tensors)

fc1.weight f4 [64, 8]
00000000: 598c b13e 648c fa3e 583f 483f d48c 0240
00000010: 1e3a 4d3c 5cb2 70bd 8930 a73d 66e0 c8bb
00000020: b6b7 993f 3d7a a4bd 7f01 f63e 1239 2e3d
00000030: 59a4 593e f4cc 3d3d 1b65 c93e f98c 043c
00000040: df0f f0be 7a6a 90bf 02c1 fcbd 35b1 dcbe
00000050: e6b6 e4bd 9149 e1be 1687 2a3e 68d6 3f3e
00000060: f740 22bf 4b00 d2be 59b3 3cbf d10c 33bf
00000070: dd1e f33e 0aa3 81be 8f6a 7e3e 83d6 14be
00000080: cee4 61be 1e44 2abe 7028 943d 2fab 933d
00000090: ed6d ec3e 85b9 6e3f 25df 923e 62d0 54bf
000000a0: 1211 783f 1fd5 5ebf 2be7 063f a23d bdbe
000000b0: 16c0 723e fe63 56be cacd 0d3e 2aea 2e3e
000000c0: 9b2b e53e a0af 2dc0 4904 9cbd 1f44 b7bf
000000d0: acb1 1c3e 6273 5c3f 1759 29bd 1d71 183e
000000e0: 2ae4 093f 2333 08bf 057b f03e da8b 86bf
000000f0: ed83 ddbe 4aa1 1abe c34d 363e 49df 5dbd
00000100: 0925 2b3e 702b 913e e5e3 d33e c079 a0bd
00000110: 2ba3 fabe a097 73be abb0 253f 7354 ab3e
00000120: e1ae ea3d dc82 aabf d975 93bd d50e 7cbf
00000130: e71b 943d b180 9e3e 9004 a63d 8920 7a3e
00000140: 75f9 b1bd ec11 91bf efd9 013e bc17 e3be
00000150: 0542 4d3e 9419 ebbd 2089 e33e f580 133d
00000160: 6a19 273e 25b2 2e3f 23fc 9f3d d100 16c0
00000170: 2d9a 013f baf6 b33e a9ff d3be eb51 cb3d
00000180: 37cb d73e f8b2 35be 1280 77be 57a2 72bf
00000190: 34fa 51bf 61e7 16bd ba85 2f3e a5b3 8e3e
000001a0: 5bc7 46bf 1220 8abf 57fa 53bf f544 38bf
000001b0: de62 713d 10bf c3bc 127a 563e 0abe 383e
000001c0: b363 8fbe 15e2 53bf 9a8c 5abf d28a 7dbf
000001d0: 8186 e83e 7a04 7c3c bb63 5ebd 7360 92bc
000001e0: 2065 3b3f ef17 09bf 0fc0 33bc 21a7 16bf
000001f0: 24bc 2fbf 6fe7 55bf 7e00 13be 9117 46be
00000200: 3374 a83f b32c 36be 1a50 e13e dab7 b13e
00000210: 8191 36bf 28a4 953e 5a2e 06bd b461 f83d
00000220: 845b a3bf f4c3 48bf 5c3d 19be 6104 42be
00000230: 411a 5fbe a71b 7bbe 2385 ab3e 86f9 a6bd
00000240: f138 523d 504d 533d bf39 6c3e 25ee a23e
00000250: 339b a43c 1d9c 85bf b35b 39be 4463 983e
00000260: b3ea 573f 1452 9fbd f7ca 8f3e db6d bbbe
00000270: af61 f43e f7d4 1e3d 18b7 d23e 6ae5 9cbb
00000280: d763 a63e f06f 73bf 631a 6cbd dc74 39bf
00000290: ff63 c93e 294b cb3e 765b a03d 3973 a93e
000002a0: b918 493f 2599 f33e 60b1 99be 8e01 b93e
000002b0: 6354 1740 ae07 f0be a2f4 96be c1fa 21bd
000002c0: 669a b7be 85da 973e 6d1e 523e 2c7d 80bf
000002d0: 6d8b 01bf 1b7e a33d 70a0 983d 51b2 593d
000002e0: 80a0 063e 36fe 8abe 00bb 003f 6402 6fbf
000002f0: 053d 3fbf ac41 bdbd 792d 09bd 7719 b33e
00000300: e1a7 4dbd 6226 16bf 8195 0cbf e409 0740
00000310: 87ac 433e e4f2 013e d856 9cbc 7bd6 2e3f
00000320: d642 0dbf af5d 9dbe b0bc 213f 7322 ad3e
00000330: 5296 babd a505 14bf d987 8cbf 693c 81be
00000340: 48ea 2abc ba5b ab3e d53f ae3e db99 243d
00000350: 2504 3fbf 22f4 25bf 3a70 f6be e33c 5b3f
00000360: 5c88 873f 639b 95be 3ce9 323f 441e 84bf
00000370: 2c67 f3be 80ff babc 37f1 ca3b 1ff3 54be
00000380: b2ac 903d ad85 a4be 37be da3e b189 a3be
00000390: fe8a 0cbf 2eb1 7abf 6d54 babf 744c e83e
000003a0: 1af9 a0bd c57f 5d3e 32c7 6a3e 7936 ce3e
000003b0: fe3c 09bf 0002 85bf ad40 6dbe f430 023f
000003c0: aba1 acbd a4a1 53bf a829 46bd e0bc a1bf
000003d0: c95b 103e 0891 02bc 844d e03d 3378 193e
000003e0: 4194 fdbc 255a b3bd 084a 663f 92ac b4bf
000003f0: 21d5 803f a47c 3ebf 63e7 303b 7276 ddbd
0.3467739 0.48935235 0.78221655 2.0398455 0.012526063 -0.058763847 0.08163554 -0.006130266
1.2009189 -0.080311276 0.48048016 0.042534895 0.212541 0.046338037 0.3933495 0.008090251
-0.4688711 -1.1282494 -0.12341501 -0.43103948 -0.111676976 -0.4400144 0.16653094 0.18734133
-0.6338038 -0.4101585 -0.7371116 -0.6994143 0.47484484 -0.253197 0.24845336 -0.14534955
-0.22059938 -0.16627547 0.07234275 0.07210385 0.46177617 0.9325183 0.2868587 -0.83130467
0.9690105 -0.87043947 0.52696484 -0.36961085 0.23706087 -0.20936581 0.13848034 0.17081514
0.4475983 -2.7138443 -0.07618005 -1.4317664 0.15302151 0.8611356 -0.04134473 0.148869
0.53863776 -0.5320303 0.46968856 -1.0511429 -0.43264714 -0.1510059 0.17803101 -0.05416802
0.16713347 0.28353453 0.41384807 -0.07835722 -0.48952612 -0.23788309 0.647227 0.33462867
0.11459137 -1.3321185 -0.07200212 -0.9846013 0.072318844 0.3095756 0.08106339 0.24426474
-0.08690158 -1.1333594 0.12680791 -0.44354045 0.20044716 -0.11479488 0.44440556 0.036011655
0.16318288 0.68240577 0.07811763 -2.3437998 0.5062588 0.35149175 -0.4140599 0.09927734
0.42147228 -0.17744052 -0.24169949 -0.9477896 -0.82022405 -0.036841754 0.17140856 0.27871433
-0.7764794 -1.0791037 -0.82803863 -0.7198022 0.058932178 -0.023894817 0.20945004 0.18041244
-0.28005752 -0.8276685 -0.8537079 -0.9903995 0.45415118 0.015381927 -0.05429433 -0.017868256
0.7320118 -0.53552145 -0.010971083 -0.5884877 -0.68646455 -0.83556265 -0.14355657 -0.19344927
1.3160461 -0.17790489 0.44006425 0.3471058 -0.7131577 0.29226804 -0.032759048 0.121280104
-1.2762303 -0.78424 -0.14964813 -0.18946983 -0.21787359 -0.24522267 0.33500013 -0.081530616
0.051323835 0.051587403 0.23068903 0.31822315 0.020093536 -1.0438267 -0.18101387 0.29763234
0.843425 -0.07779327 0.28084537 -0.3660725 0.47730777 0.038777318 0.41155314 -0.0047880905
0.32498047 -0.9509268 -0.05764235 -0.7244394 0.39334103 0.3970578 0.07829945 0.3309572
0.7855335 0.47577778 -0.3001814 0.36134 2.3645256 -0.4688086 -0.29483515 -0.03954578
-0.35859984 0.29658905 0.20519419 -1.00382 -0.5060337 0.07983037 0.07452476 0.05314857
0.13147163 -0.27147073 0.5028534 -0.9336302 -0.74702483 -0.092410415 -0.03349063 0.34980366
-0.05020893 -0.5865232 -0.54915625 2.1099787 0.19108783 0.12690312 -0.01908438 0.6829602
-0.5518011 -0.30735537 0.6317854 0.33815345 -0.091107026 -0.5782111 -1.0978957 -0.25241402
-0.010431834 0.3346842 0.34033075 0.04018579 -0.746157 -0.6482564 -0.48132497 0.8563978
1.0588489 -0.29220113 0.6988714 -1.0321736 -0.4753965 -0.02282691 0.006193306 -0.20795868
0.07064189 -0.32133237 0.42723247 -0.31940988 -0.54899585 -0.97926605 -1.4557015 0.4537083
-0.07860012 0.21630771 0.2292755 0.40275934 -0.5360869 -1.0391235 -0.23169203 0.50855947
-0.08429273 -0.8266852 -0.04837957 -1.2635765 0.14097513 -0.007969148 0.10952285 0.14987259
-0.030954482 -0.08757428 0.8995671 -1.4115164 1.0065042 -0.74408937 0.0026993386 -0.10813607

fc1.bias f4 [64]
00000000: 4473 083e dadc 2bbc 0271 02bf 7731 86be
00000010: 4496 903e a41b a1be 3d32 a63e b68b 56be
00000020: 0a5c 86be c295 013f 9a3f 3bbd 5eec 523e
00000030: d501 3c3f d96d abbe 2b0f b1bd b4de cbbd
00000040: 8068 7cbd a832 923d 8ab5 da3e 88ab 1bbd
00000050: 3b42 1ebe 10b3 2d3f 642b 3e3f 148c c8be
00000060: 01a7 e6be a92c 093f 400c 43be d249 023d
00000070: 5e72 b8bd bb4f 413e 9b87 94be e091 d33d
00000080: 8236 6a3f cdee 253d 817f 4f3f f900 e93d
00000090: 223c bcbd 0510 08be 2243 b5bd 7d61 413e
000000a0: a446 c63c 6162 ed3e f736 ac3e a3b1 06bf
000000b0: 02a3 db3e 8a16 253c cfbf 11be d757 1c3f
000000c0: 6857 653f ce05 e73e 4630 ecbd 9c06 92be
000000d0: 2214 f4be ba66 4ebe dfa4 123f ba66 7d3e
000000e0: f881 1dbe a336 fdbe bf79 07be 53c9 ecbe
000000f0: 982b f1be 6e78 863e aea8 8f3e e1fa 82bd
0.1332522 -0.010489667 -0.50953686 -0.26209614 0.28239644 -0.314664 0.32460204 -0.20951733
-0.26242095 0.5061914 -0.045714952 0.2059798 0.73440295 -0.33482245 -0.08645471 -0.099545866
-0.061623096 0.07138568 0.42716628 -0.03800538 -0.15454952 0.6785135 0.7428496 -0.3916937
-0.4504929 0.5358377 -0.19047642 0.03180868 -0.09006189 0.18878071 -0.2900971 0.10330558
0.9148942 0.04051094 0.8105393 0.11377139 -0.09191157 -0.13287361 -0.08850695 0.18884845
0.024203606 0.4636412 0.33635685 -0.526148 0.42897803 0.0100761745 -0.14233325 0.6107153
0.89586496 0.45121616 -0.11532645 -0.28520668 -0.4767161 -0.20156375 0.57282823 0.24746218
-0.1538161 -0.49455747 -0.13230036 -0.46247348 -0.47103572 0.26263756 0.2805838 -0.063955076

fc2.weight f4 [64, 64]
00000000: 80df d1bc 67d3 94be b953 2d3e e735 d5be
00000010: aa6d 6fbe d323 a9bf ff1c a13d 6308 79bf
00000020: 153a 38be f158 80bd e8ca 0cbf b793 d4be
00000030: f717 9d3e c2c9 37bf aaa6 b5be a887 0ebf
00000040: 60e1 c2be 3bb5 79be 12f4 3e3b fa07 febe
00000050: 0c8d 07bf 9fd8 0a3f 28a1 d23e 6bb9 78bf
00000060: ab24 31bf ee37 5e3f 6b08 61be 2a4b 84bf
00000070: 6ad5 8fbd 58e8 283e 29d1 83bf 9c1a 6f3f
00000080: ee4b 3f3f 485e 4dbe 0ff1 c43d ebf9 fe3e
00000090: 7e38 8cbe f6d3 573f a824 59be 2c18 36be
000000a0: eff9 9d3d 5336 23bd 4335 3c3f a0ee 74be
000000b0: a075 8e3e fd7f 833f c38a 5f3f 5c78 9f3e
000000c0: 4dfc 2c3f 6236 abbd 4580 32bf 0a36 f6be
000000d0: e61f abbe 4786 e8be 00d8 b63f de87 fa3e
000000e0: 5fcb d3be 50c5 873f 6ea2 fdbe b9b3 2abf
000000f0: 1166 60bd 2a5d 733e 8364 6a3e 23b1 9b3f
00000100: 38bf a6bf 833c 013f f7d0 a1bd 95c3 d73e
00000110: c06f b6be 5713 3a3f 095e a13e 5ca3 093f
00000120: 919c 773e cc04 9b3e 90ad 703f 15db 403e
00000130: 470b 023e ee7d 413f 6aec ff3e 3cc6 0f3f
00000140: f4a1 96bb 2353 3f3e c756 65be 0fac 313f
00000150: d71f e43e e826 8b3e 1111 8ebe 7aaa 353f
00000160: 9b43 24be e4ab f23d 3dbf d43e d0f9 5f3e
00000170: 518b e53e fd07 67be 6c2c 103f e6fc d93d
00000180: 39e9 863d 9286 06bd 8d88 d3bc d98c 853d
00000190: 68f9 e23d 6f79 d5be 29f5 0c3f 61fd 1abe
000001a0: 67a1 68bb bf46 28be a692 a9bf c163 143f
000001b0: de38 253e d658 95be ce7b d8be d916 b2bd
000001c0: 6c8d 69be de03 353e 979b e73e 0bec 243f
000001d0: 226a 2c3f 8421 813f 7c4a 01c0 d879 953d
000001e0: f879 823f 6fd5 84bf 4191 c33e 3694 fd3e
000001f0: 40a7 7e3e 533d 3cbf a130 aebd 27e0 9f3e
00000200: 3ffe 923f 1488 f4be eeaf d53f ca0f 1c3e
00000210: 34c6 16c0 4858 02bf a864 dbbe 6614 1b3f
00000220: 58cd 1bbf f5ca 68bf a729 abbd c855 2b3f
00000230: 4ea4 283e 1855 113f 2d63 c73c 999d 973e
00000240: 27ba 863f ec44 54be e0c1 f4bf 75a6 99bd
00000250: 52cd d8bd 2053 803e a7a7 4e3e 2563 0a3f
00000260: 95fa 72bf 203e f0be 9f23 d3bf b11b 4fbf
00000270: 10da 1ec0 89dd adbf a906 6a3e 2747 7d3f
00000280: c1a3 9ebf bdc0 c0bf f90c 073e 54ed 9d3f
00000290: 71b5 5fbe 8e2b 793f 1a30 8f3f c6d6 4abf
000002a0: 0032 b0bd 5a6f cfbf b33b 8d3f 3289 66bf
000002b0: 533f 943e e5ea a53f b1f9 34bd 435c 723e
000002c0: bed1 023f 7430 363e 8ae3 09c0 240d c4bc
000002d0: 68b4 583f 5539 f63d 7f94 6dbf afd8 833f
000002e0: 7ffc 37be e89b 893f f8d8 a3bc 0f97 1fbf
000002f0: fbfd 093d ba13 823f 8464 0f3f 0731 8b3f
00000300: c745 113f a329 353f 4ab4 88be d74d 5a3e
00000310: 2f92 4d3e 011c 2a3f 309f 51be 66e3 083f
00000320: 6d02 2f3e 8168 fe3c a361 be3e 791d 253f
00000330: 0069 093e 4558 1a3f 4e26 e03d 76a4 3d3f
00000340: 2f34 323f 0dee 773c 8ce2 853e d4e9 c03e
00000350: e713 2e3e fda9 ca3e 18ec ddbc 5bf9 5a3f
00000360: abfc 3d3f faac a4be dc42 f83e 510c c83e
00000370: 098c 063e b8b0 833d 90aa d73e f2e2 0abf
00000380: 6227 86be 8603 953e 5557 fb3d c4b5 41be
00000390: a08c c73e 8b01 4abf ca3c 1b3f beb1 943e
000003a0: 0dfe 3f3f 9b7e 0f3e cb81 22bf b1f1 253f
000003b0: 2f4c a73e 2b99 ecbe 0371 d1be 23ec 153c
000003c0: 2862 283e e6ba 9e3e 5fb9 e13e 7e4e 453f
000003d0: 3799 1b3f 6412 f83e b2e0 c6bf 448a 8e3e
000003e0: 6d92 b33e 4f13 5bbf fa60 083f 1ec9 8c3e
000003f0: 4dbb 3e3e 7d79 cf3e 75f3 283e 26cd 17bf
-0.025619268 -0.29067537 0.16926469 -0.41642687 -0.23381677 -1.3214058 0.07866859 -0.9727842
-0.17990907 -0.06266964 -0.5499711 -0.41518947 0.30682346 -0.71792233 -0.35478717 -0.55675745
-0.38062572 -0.2438554 0.0029137176 -0.4961546 -0.52949595 0.5423679 0.41138577 -0.97157925
-0.69196576 0.8680409 -0.21975867 -1.0335438 -0.070231274 0.16494882 -1.0298206 0.9339998
0.74725235 -0.20055497 0.09616291 0.49800047 -0.2738685 0.843078 -0.2120539 -0.17782658
0.07713687 -0.03984673 0.7351877 -0.23919153 0.27824116 1.0273434 0.8732111 0.31146514
0.6757248 -0.08359982 -0.69726974 -0.48088104 -0.33422774 -0.45414945 1.4284668 0.48931783
-0.41366097 1.060709 -0.49537987 -0.66680485 -0.054784838 0.23766008 0.22889905 1.2163433
-1.3027105 0.5048296 -0.07901185 0.42141405 -0.35632133 0.7268576 0.31517056 0.5376489
0.24180819 0.30277097 0.94014835 0.18833573 0.12699614 0.7558278 0.49985057 0.56161857
-0.004596943 0.18684058 -0.22396384 0.69403166 0.44555542 0.2717812 -0.27747396 0.7096325
-0.16041414 0.11849192 0.41552153 0.2187264 0.44832852 -0.22561641 0.5631778 0.1064394
0.065874524 -0.03284318 -0.025821948 0.06521005 0.11082727 -0.4169421 0.55061585 -0.15135719
-0.0035496594 -0.16433237 -1.3247879 0.5796471 0.16134974 -0.2916934 -0.42281955 -0.08695764
-0.22807854 0.17677256 0.45235893 0.64422673 0.67349446 1.0088353 -2.0201712 0.072986305
1.0193472 -1.0377635 0.38196757 0.49527138 0.24868488 -0.73531073 -0.08505369 0.31225702
1.148384 -0.4776007 1.6694314 0.15240398 -2.3558474 -0.50915956 -0.42850232 0.60578
-0.60860205 -0.9093469 -0.08357554 0.66927767 0.16468927 0.5677047 0.024339283 0.29612425
1.0525559 -0.20729417 -1.9121666 -0.07502452 -0.10586037 0.2506342 0.20181142 0.5405753
-0.9491361 -0.46922398 -1.6495246 -0.8090163 -2.4820595 -1.3583232 0.22854103 0.98936695
-1.2393724 -1.5058819 0.13188542 1.2338052 -0.21846558 0.97332084 1.1186554 -0.7923397
-0.08603287 -1.6205857 1.1033844 -0.90053093 0.28954563 1.2962309 -0.044183437 0.23668008
0.5110129 0.17791921 -2.154513 -0.023932047 0.8465028 0.12022654 -0.9280471 1.0300502
-0.17967413 1.0750704 -0.02000092 -0.6233987 0.03368948 1.016227 0.5601275 1.0874337
0.56747097 0.7076666 -0.2670005 0.21318756 0.20075296 0.6644898 -0.20470881 0.5347198
0.17090769 0.03105569 0.37183866 0.64498097 0.1341896 0.6029094 0.10944806 0.7407907
0.69610876 0.015132439 0.26149404 0.37678397 0.1699978 0.39582816 -0.027090117 0.85536736
0.74213666 -0.3216322 0.4848851 0.39071897 0.13139357 0.06430191 0.42122316 -0.5425254
-0.26201922 0.2910425 0.12272517 -0.18916994 0.38974476 -0.78908604 0.6063963 0.29041857
0.74997026 0.1401314 -0.634793 0.64821917 0.3267531 -0.46210608 -0.40906534 0.009150538
0.16443694 0.31001967 0.4408674 0.77072895 0.6078066 0.4845153 -1.5537322 0.27839863
0.35072652 -0.8557634 0.53272974 0.2749719 0.18626137 0.40522376 0.16499121 -0.59297407

fc2.bias f4 [64]
00000000: f9a5 643f a03c 17bf 0db9 89bd 5c0e 9c3c
00000010: ff68 ed3d b4a2 8d3c 100a 033f fb8a ca3e
00000020: 9da5 043f 9f19 50bd 2b75 2bbe c0a3 f3b9
00000030: 2e83 3fbb b03f 083f 9fbc 103d 7296 3e3d
00000040: eafc 723e e7c0 80bd 221b 0a3f cd38 6ebd
00000050: 67d0 e7bd 5c05 c5be c594 a03e de01 bdbd
00000060: 9426 ad3d 741b 15bc 735a d7bd 6542 8abd
00000070: 26fb 973d d62a 09be efa8 b93e 306e b53c
00000080: 9dd4 c23e 6c23 b23a 9b94 153f 711c 0d3d
00000090: 5aa5 d0bd 4479 4abe b92b 1c3d d852 d6bd
000000a0: cda2 2b3d a883 01bd b612 fbbd bfe6 4bbf
000000b0: 0f09 653f 5f82 cb3d b963 39bd 5910 ae3e
000000c0: 3b0d 353e 0cff 253d e565 1ebe 2464 913e
000000d0: dbe9 ecba 1bcb 84be 2006 9c3d bb37 f73e
000000e0: a4f8 b7bc c4d8 97be 6417 eebd f920 ba3e
000000f0: 00cb 36bb 0197 913d 9db9 54be 5658 bd3e
0.89315754 -0.5907688 -0.06724749 0.019049816 0.11592292 0.017289497 0.5118723 0.3955916
0.51815206 -0.050805684 -0.16743915 -0.00046470575 -0.0029222476 0.5322218 0.035336133 0.046530195
0.23729292 -0.06286793 0.5394765 -0.05815964 -0.113190465 -0.3848065 0.31363502 -0.09228872
0.08454624 -0.009100784 -0.10515299 -0.06750945 0.0742095 -0.13395247 0.362617 0.022147268
0.38052836 0.0013590879 0.5842988 0.034450952 -0.10187788 -0.19772822 0.038127635 -0.1046502
0.041903306 -0.031619698 -0.12259428 -0.79648966 0.8946695 0.09936976 -0.04526112 0.33996847
0.17680828 0.040526435 -0.15468557 0.28396714 -0.0018075065 -0.25936207 0.07618356 0.48284706
-0.022457428 -0.29657567 -0.11625555 0.3635328 -0.0027891994 0.0710888 -0.20773931 0.36981457

fc3.weight f4 [4, 64]
00000000: 9bd2 923f e053 d7be 00b1 e03f 0418 febe
00000010: 619c a0be eb79 ab3f 59f9 bc3f a252 e33f
00000020: 2e12 933f b7f7 2dbf be1d 03bf 96d5 d2be
00000030: e392 e4be 8ab1 a03f 9d55 c6be aa08 88be
00000040: 63f6 e23f c4eb b2be ce10 bd3f b541 08bf
00000050: 3026 d9be edcc f3be c156 5abe 4d7c bc3f
00000060: 9396 d9be a6a6 4cbf 22cf c2be 1153 f1be
00000070: 386d 223d bb1f 7fbe 04dd ed3f 2d6f dbbe
00000080: edb6 7a3f 85e6 90be 81e7 d53f 9d94 fbbe
00000090: 1521 48bf 959e 86be 5c6f 9fbe 1373 1abf
000000a0: cf09 923f 233f b2be c060 89bd 0339 43bf
000000b0: 6269 983f 7836 92be 0472 b7be 8925 d63f
000000c0: 9e95 af3e 48c3 ebbe 58f2 c9be 4dde fc3f
000000d0: 6bfe a6be 96fa 22bf 776b eebe 8852 0c3f
000000e0: 206d a8be 0779 10bf 00a7 6f3b a0e8 1840
000000f0: 1489 2dbd 6e09 12bf 3cc6 61bf af3a 843f
00000100: 68ad 973f f49f 2cbf 74dd fd3f aad9 b7be
00000110: 1d45 85be f57a e43f 250e 993f 3ebb ec3f
00000120: 9730 c13f 5a6e 62bf 5a80 05bf 24f2 85be
00000130: f0c2 f9be 99da 743f 2472 0dbf 75c6 d0be
00000140: b1ab 0440 5e98 edbe 0123 843f 6b71 8dbe
00000150: c431 f7be 827d 2bbf 8709 713e 229c 943f
00000160: 97ac 01bf adb3 42bf 9e2b febe d667 0dbf
00000170: 30f2 d3bc 5ae6 38bf 178b c53f ff23 b4be
00000180: 0077 f63e 4908 a9be fcc0 fb3f 6f75 e6be
00000190: 8927 ffbe 9afe 9abd 18f6 f9be b870 1ebf
000001a0: 6b58 b73f 2541 f3be 62ce f43d 9f21 4cbf
000001b0: 8c4e a33f 6614 b2be 6395 f6be 8637 a33f
000001c0: d3ec afbe d8ad 03bf e25e ccbe 36a6 0840
000001d0: 970c 9cbe d5cd 33bf b7cb 9cbe e5ab a83f
000001e0: da11 c9be 6769 2fbf 4559 10ba 7f02 1d40
000001f0: f424 16bd 50dc c6be e00e 74bf 1569 903f
00000200: 06ff 8d3f 7a0b 89bf 05f3 ec3f 9283 c2be
00000210: ab94 28bf e3ed 0840 a29e ac3f 139e af3f
00000220: c329 ae3f 41b4 43bf 4810 f2be b9cf 03bf
00000230: b1ed a5be 2d52 9c3f ab2d 1bbf 80fc 45bf
00000240: 0489 0040 13b1 efbe cd77 883f a8e1 03bf
00000250: 4ce8 ecbe af7c 62bf 2cf8 52c0 3d3b ec3f
00000260: aa3a 5dbe 8493 51bf 2b5c d8be 642f 9fbe
00000270: ba7f 60bc 1ac5 b7be a9fe d43f 293d c7be
00000280: b00f df3f fb86 543e c9ae d23f f3ba dfbe
00000290: 2d2f 50bf c771 74bf 3c98 e5be 6d4f 43be
000002a0: 484e d63f 4773 b2be e44b ce3d fa2b 98bf
000002b0: 7c24 7f3f 83b8 23bf a220 a1be 0716 cc3f
000002c0: 30af ec3f e710 8cbe 7b86 f5be 4284 0a40
000002d0: 0b4c 10bf 9fe7 8bbf f1ad 313e 87d4 be3e
000002e0: e8ed c0be f547 34bf 8e08 9cbc c80a bf3f
000002f0: 3843 bc3c 4f05 afbe 5737 a2be 6d25 8a3f
00000300: 0c94 973f 1015 27bf 862d af3f d375 0dbf
00000310: 2668 fdbe 5fd8 883f 3bed cd3f 7f50 c53f
00000320: 94dc 5f3f cd96 d43e fd6f 04bf 9f69 f8be
00000330: 9220 ffbe a39b 963f 1d56 59be 2120 95be
00000340: c58f a43f 58c3 ccbe 96ea f83f 9a7f d7be
00000350: 31a0 bcbe ef00 11bf 0fe7 0c3f 7f06 d03f
00000360: 1d9b d2be 1e65 bb3c 74a1 ecbe 480f b3be
00000370: fd17 da3d a405 8ebe b350 0940 d3c6 dcbe
00000380: 20b1 763f e8c7 d9be 86b6 aa3f 22e5 92be
00000390: fb8e 1bbf 147f 31bf ffdc e0be 13a0 1bbe
000003a0: c890 7c3f 17a2 e2be a205 bcbd 2620 e43e
000003b0: a9af a93f 5c76 06bf 6c17 05bf 1e6e fe3f
000003c0: 973b e63e b0bd ccbe 52d9 fcbe f1c2 ff3f
000003d0: 2dc6 fcbe 7c0a d0be 3b8d 38bf b273 223e
000003e0: 2b26 03bf 60bd d2be 9b2d cc3d d6ae 2d40
000003f0: 94e5 c53d f664 01bf 45ec 29bf 0f39 973f
1.1470522 -0.4205618 1.7554016 -0.49627697 -0.31369308 1.3396581 1.4763595 1.7759593
1.1489923 -0.6795611 -0.5121726 -0.41178578 -0.44643316 1.2554181 -0.38737193 -0.2656911
1.7731441 -0.349455 1.4770753 -0.5322526 -0.42411947 -0.47617283 -0.21322156 1.4725434
-0.42497692 -0.79941785 -0.38048655 -0.47133687 0.03965494 -0.24914448 1.8583074 -0.42858258
0.9793537 -0.28300872 1.6711274 -0.4913682 -0.7817548 -0.26292863 -0.31139648 -0.6033184
1.1409243 -0.34813794 -0.06707907 -0.7625887 1.190716 -0.2855718 -0.35829175 1.6730205
0.34293836 -0.46047425 -0.39442706 1.9755341 -0.3261598 -0.63663614 -0.46566364 0.5481343
-0.32895756 -0.56434673 0.0036568046 2.3891983 -0.042367056 -0.5704564 -0.88193107 1.0330409
1.1849794 -0.6743157 1.9833207 -0.35908252 -0.26029292 1.7850024 1.1957442 1.8494642
1.5092953 -0.88449633 -0.52148974 -0.261613 -0.48781538 0.95646054 -0.5525229 -0.4077641
2.0729792 -0.4640531 1.0323182 -0.27625594 -0.48280156 -0.66988385 0.2353879 1.1610148
-0.50653976 -0.76055413 -0.49642652 -0.55236566 -0.02587232 -0.7222649 1.5433072 -0.35183713
0.48137665 -0.33014134 1.9668269 -0.4501147 -0.4983485 -0.07568093 -0.48820567 -0.61890745
1.4323858 -0.4751064 0.11953427 -0.797388 1.2758346 -0.34781188 -0.48160848 1.275132
-0.3436037 -0.5143714 -0.3991614 2.1351447 -0.30478355 -0.7023595 -0.30624172 1.3177458
-0.39271432 -0.68520206 -0.0005506466 2.4532773 -0.036656335 -0.3883996 -0.953352 1.1282068
1.1093452 -1.0706627 1.8511664 -0.37991005 -0.6585185 2.1395195 1.3485911 1.3720115
1.3606495 -0.7644692 -0.47278047 -0.51488835 -0.32407907 1.2212578 -0.6061656 -0.7733841
2.0083628 -0.46814784 1.066156 -0.515162 -0.46270978 -0.884715 -3.2963972 1.8455578
-0.2160441 -0.81865716 -0.4225782 -0.31090844 -0.013702327 -0.35892564 1.6640216 -0.3891385
1.7426662 0.20754616 1.645959 -0.43697318 -0.81321985 -0.9548611 -0.44842708 -0.19073267
1.674264 -0.34853575 0.10073069 -1.188842 0.99665046 -0.6395342 -0.3147021 1.5944222
1.8490963 -0.27356645 -0.47954163 2.1643224 -0.5636603 -1.093006 0.1735151 0.3727152
-0.37681508 -0.704223 -0.019047048 1.4925165 0.022981271 -0.34183738 -0.31682846 1.0792671
1.1842055 -0.65266514 1.3685768 -0.5525791 -0.4949352 1.0691031 1.6088022 1.541519
0.8744595 0.41521302 -0.5173338 -0.48518082 -0.49829537 1.1766247 -0.21224256 -0.29126075
1.2856375 -0.39992785 1.944659 -0.4208954 -0.36840966 -0.5664205 0.5504007 1.6251982
-0.41133967 0.022875365 -0.4621693 -0.34972596 0.10649107 -0.27738678 2.1455505 -0.4312044
0.9636402 -0.4253533 1.3336952 -0.2869044 -0.60765046 -0.6933453 -0.43918607 -0.15197782
0.9865842 -0.4426429 -0.09180762 0.44555777 1.3256732 -0.5252435 -0.51988864 1.9877355
0.44967338 -0.3998847 -0.49384552 1.9981366 -0.49369946 -0.40633 -0.720905 0.15864447
-0.51230115 -0.41160107 0.09969636 2.7137961 0.09662929 -0.5054468 -0.66376144 1.1814288

fc3.bias f4 [4]
00000000: 0a6d 083e 3ffa dd3e acb0 443e a1d3 29be
0.13322845 0.43354985 0.1920802 -0.16584636
